models/neurogrid.onnx (onnx, 1963 bytes, 3 tensors)

functional_1/output_layer_1/Cast/ReadVariableOp:0 f4 [32, 1]
000000 3c 87 f7 3d c1 6d ab be 7d 56 5b be 3f 58 8d be
       0.12086341 -0.33482173 -0.21419711 -0.2760639
000010 b0 33 38 be f0 c1 a8 3e 08 5a 63 3d a6 64 1c be
       -0.17988467 0.32960463 0.055505782 -0.1527277
000020 e8 47 d4 3c 09 44 65 3d 52 5a 94 be ab 26 49 bd
       0.025913194 0.055973087 -0.2897516 -0.049109142
000030 50 c1 a5 3e b5 47 87 bc 74 b4 b1 be 75 6d dc bd
       0.32374048 -0.016513685 -0.34707987 -0.10763065
000040 87 4e 10 be 6d a3 3c 3e f6 ff 09 be d1 b5 0b 3e
       -0.14092456 0.18421717 -0.13476548 0.13643576
000050 f8 dd a2 3e 4a 29 13 be 7d 01 3e 3e 58 af aa be
       0.31809974 -0.1437122 0.18555255 -0.33336902
000060 71 cb 94 bd 37 a6 a9 be cb e9 f3 bd 92 9c 22 bd
       -0.07265366 -0.33134624 -0.11909827 -0.0397001
000070 e2 34 73 be ad dd 3f 3d 1f ec 5c be 78 a2 f4 3d
       -0.23750642 0.046842266 -0.21574448 0.11945051

functional_1/dense_1/Cast/ReadVariableOp:0 f4 [5, 32]
000000 f1 da 8c be 8b 4c 63 be 34 6b 0c be 57 0a 2d be
       -0.2751079 -0.22197168 -0.1371277 -0.16898476
000010 6a ab 86 3d e9 c4 b5 3d 41 ad 0b be 3c de a5 be
       0.065756634 0.08875448 -0.1364031 -0.32396114
000020 d8 53 97 be bd 15 2d 3e 40 8b 8d be 9e 3b aa 3e
       -0.29556155 0.16902824 -0.27645302 0.3324861
000030 72 0d 6f be 10 cb 9a 3e ab 88 97 3c 9e 51 60 be
       -0.23344973 0.3023305 0.018497786 -0.21906134
000040 b4 54 85 3c 3d cc f1 bd be d7 f2 3d 5a 62 0b 3e
       0.016275741 -0.118065335 0.11857556 0.13611737
000050 79 88 e9 bd a0 ad 98 bc 01 f3 6a be ea 7c 8f be
       -0.11402983 -0.018637478 -0.22944261 -0.2802499
000060 8f 91 97 be ae 86 30 be 05 50 b3 3e 3b 84 39 bd
       -0.2960324 -0.17238876 0.35021988 -0.04529212
000070 b0 0d 8d be 0b d3 05 3e de 88 e3 bd 84 64 9f 3e
       -0.27549505 0.13068788 -0.1111009 0.31131375
000080 50 58 67 3e d6 ae 80 3e f0 0b 9c be 03 76 b1 3e
       0.22592282 0.2513339 -0.30477858 0.34660348
000090 5e c2 96 3e a1 a2 48 3e af 21 a3 be 68 e8 44 be
       0.29445165 0.19593288 -0.31861636 -0.19229281
0000a0 92 1b 88 3e 0d 05 4d be a4 8f d6 3a 7d 77 ff bb
       0.26583534 -0.20021458 0.0016369713 -0.0077962265
0000b0 c6 00 82 3e 6e 8b 0f be 54 ea d1 be a1 dc b3 be
       0.25391215 -0.14018032 -0.4099909 -0.35129264
0000c0 1c fe 2c be ae f9 3a be 46 3b c9 3e fc e6 96 3e
       -0.1689381 -0.18259308 0.39303035 0.29473102
0000d0 a9 7e 7b 3e 28 7d 73 bd 02 a4 9f be 3e ea 0e 3d
       0.24560036 -0.05944553 -0.31179816 0.03489136
0000e0 9c 28 83 3d ab ce 70 3d 21 7c 40 3e fd af 58 3e
       0.0640423 0.058790844 0.18797351 0.21160884
0000f0 a6 91 35 be 60 a9 ae be 78 ca bd 3b 9d 50 b9 3e
       -0.17731342 -0.34113598 0.0057919584 0.36194316
000100 3b f5 e0 bb d4 8a 9c be c5 74 be be e5 1c c5 3e
       -0.0068651712 -0.30574667 -0.37198463 0.38498607
000110 0c d4 e3 bd 48 31 81 3e 13 c6 a6 3e 54 8e d9 be
       -0.11124429 0.2523291 0.32572994 -0.424914
000120 98 0a 2b be 71 e8 a6 3e ac f2 2e be 42 1d 10 bd
       -0.1670326 0.32599214 -0.1708476 -0.035184152
000130 16 16 97 be 6f 6d 6b bc a7 90 c7 bd 9a e4 5f 3e
       -0.29509038 -0.014369353 -0.09744387 0.21864548
000140 bc c4 84 3e 80 af 42 be 22 94 b9 3e 67 0c 5c bd
       0.25931346 -0.1901226 0.3624583 -0.053722765
000150 af 4e 4b 3e d6 eb 0e be 4b ad 19 3e c0 0e 05 be
       0.19854234 -0.13957152 0.15007512 -0.12993908
000160 50 44 37 3e cc 6f a2 bc f6 9f a3 3e 9b 27 8a 3e
       0.17897153 -0.0198287 0.31957978 0.26983342
000170 81 35 f9 3d e4 4a 64 be 21 f2 96 bd cf 22 aa 3e
       0.12168408 -0.22294194 -0.07370401 0.33229682
000180 c1 1b 30 be de ef 74 3e 68 34 81 3d 59 56 62 be
       -0.17198087 0.23919627 0.06308824 -0.22103252
000190 d7 ce 4c 3c fc 6c b2 3d 5e b6 46 bd e8 c8 b8 3c
       0.012500486 0.08712193 -0.048513763 0.022556737
0001a0 76 c3 a0 be f7 57 02 bf 69 ad 2e bd 7e 8c 96 bd
       -0.31399125 -0.50915474 -0.042645846 -0.073510155
0001b0 61 be 82 3e 21 a4 56 be 60 22 8c 3e 33 be 6c 3e
       0.25535873 -0.20961048 0.27369976 0.2311943
0001c0 bb 8e 25 3c 15 1e c6 bd 45 69 15 be 4c 25 d1 bc
       0.01010483 -0.096737064 -0.14590938 -0.02553048
0001d0 80 21 09 be a8 c7 43 3d 20 bd aa 3e 81 e3 bd bd
       -0.13391685 0.04779783 0.33347416 -0.092719086
0001e0 50 d0 b8 bd d3 96 a7 be 2a 23 2c 3d 65 c0 8e be
       -0.090241075 -0.32732257 0.042025723 -0.2788116
0001f0 0a 72 4c 3d 2b 56 ab 3e e0 d4 3d 3e da f3 bb be
       0.049913444 0.33464178 0.18538237 -0.3670948
000200 81 a1 70 3e cb 87 81 be 76 f4 8f 3e e4 0f 38 be
       0.23499109 -0.25298914 0.28116196 -0.17974812
000210 0d 89 33 3e 0f d4 6b 3e 37 96 9f 3e dc 11 75 be
       0.1753275 0.23030113 0.31169292 -0.23932594
000220 f5 16 47 be 4e 6c e7 be f2 51 c6 be e3 fb bb be
       -0.19442351 -0.45199817 -0.38734394 -0.36715612
000230 02 ec 88 be 97 f1 de be f4 49 0a 3c 1d ef d5 3e
       -0.2674256 -0.43543693 0.008440483 0.4178399
000240 69 83 a8 3d 7b 9f 13 3e 9a 72 31 be b1 cd 81 bd
       0.082281895 0.14416306 -0.17328873 -0.06338061
000250 29 7c 2a be 58 e3 99 be 1c 65 d0 3e 95 c5 b0 be
       -0.16648926 -0.30056262 0.4070214 -0.34525743
000260 a4 67 21 3d b3 ad 8f be 0d b5 92 3e 9b 9b 9e 3e
       0.03940548 -0.2806221 0.28653756 0.30978093
000270 4a 0e e4 be 4e c4 c0 bd 22 d1 a2 3e 77 ef 0f bd
       -0.44542152 -0.09412442 0.3180018 -0.03514048

functional_1/dense_1/BiasAdd/ReadVariableOp:0 f4 [32]
000000 ce 20 2a 3c b7 cf 38 bd d6 8a cf bd c5 4a 24 bc
       0.010383798 -0.045119967 -0.10133903 -0.010027592
000010 5e a1 15 be 5d 96 49 3e 14 61 ab 3b e0 f8 91 bd
       -0.14612338 0.19686265 0.0052300785 -0.07127547
000020 9d 09 2f bd c2 07 cd 3d 6a f9 73 bd c6 d8 67 be
       -0.042733777 0.10011245 -0.05956403 -0.22641286
000030 41 44 46 3d cd e6 4a be 6a 97 21 bd 87 af 16 bd
       0.048404936 -0.19814606 -0.03945104 -0.03678849
000040 ef 7e 90 be 32 1b 28 bd 40 2d 18 be 7e 67 96 3e
       -0.28221843 -0.04104156 -0.14861012 0.29375833
000050 9f 70 6b 3e 00 00 00 00 2a 8a 81 3d 6d 30 9d bd
       0.2299218 0.0 0.06325181 -0.07675252
000060 44 08 17 bd 9e 3d 57 bd 02 34 4d be b6 3a 92 be
       -0.036873117 -0.052548997 -0.2003937 -0.28560418
000070 a0 9b 00 be 0a 53 09 bd 41 c9 bf bd c3 09 31 3e
       -0.12559366 -0.033526458 -0.09364558 0.1728888
